…
              "7": []
            - "2": fopng/eval/*
              "5": 1
              "6":
                - 1
              "7": []
        python_version: 3.10.19
        t:
            "1":
                - 1
                - 41
            "2":
                - 1
                - 41
            "3":
                - 7
                - 16
            "4": 3.10.19
            "5": 0.25.0
            "12": 0.25.0
            "13": linux-x86_64
alpha:
    value: 0.3
architecture:
    value: |-
        HyperNetwork(
          (target_network): CIFARTarget(
            (convs): Sequential(
              (0): Conv2d(3, 32, kernel_size=(3, 3), stride=(1, 1), padding=(1, 1))
              (1): GroupNorm(1, 32, eps=1e-05, affine=True)
              (2): ReLU()
              (3): Conv2d(32, 64, kernel_size=(3, 3), stride=(1, 1), padding=(1, 1))
              (4): GroupNorm(1, 64, eps=1e-05, affine=True)
              (5): ReLU()
              (6): MaxPool2d(kernel_size=2, stride=2, padding=0, dilation=1, ceil_mode=False)
              (7): Conv2d(64, 128, kernel_size=(3, 3), stride=(1, 1), padding=(1, 1))
              (8): GroupNorm(1, 128, eps=1e-05, affine=True)
              (9): ReLU()
              (10): MaxPool2d(kernel_size=2, stride=2, padding=0, dilation=1, ceil_mode=False)
            )
            (gap): AdaptiveAvgPool2d(output_size=1)
            (fc): Sequential(
              (0): Linear(in_features=128, out_features=64, bias=True)
              (1): ReLU()
              (2): Linear(in_features=64, out_features=10, bias=True)
            )
          )
          (chunk_emb): Embedding(69, 32)
          (task_emb): Embedding(5, 32)
          (layers): Sequential(
            (0): Linear(in_features=64, out_features=400, bias=True)
            (1): LeakyReLU(negative_slope=0.1)
            (2): Linear(in_features=400, out_features=800, bias=True)
            (3): LeakyReLU(negative_slope=0.1)
            (4): Linear(in_features=800, out_features=1500, bias=True)
          )
        )
check_vram:
    value: false
chunk_embedding_dim:
    value: 32
chunk_size:
    value: 1500
epochs:
    value: 10
fisher_samples:
    value: 1024
grads_per_task:
    value: 250
hyper_hidden_dim:
    value: 400
lam:
    value: 0.0001
lr:
    value: 0.001
max_directions:
    value: 1250
methods:
    value:
        - fopng
model:
    value: HyperNetwork
…
