100%|█████████████████████████████████████████████████████████████████████████| 170M/170M [01:30<00:00, 1.87MB/s]
Target_network_param_n:  618250
hyper_network_param_n:  1013100
HyperNetwork(
  (target_network): CIFARTarget(
    (convs): Sequential(
      (0): Conv2d(3, 32, kernel_size=(3, 3), stride=(1, 1), padding=(1, 1))
      (1): ReLU()
      (2): Conv2d(32, 64, kernel_size=(3, 3), stride=(1, 1), padding=(1, 1))
      (3): ReLU()
      (4): MaxPool2d(kernel_size=2, stride=2, padding=0, dilation=1, ceil_mode=False)
      (5): Conv2d(64, 128, kernel_size=(3, 3), stride=(1, 1), padding=(1, 1))
      (6): ReLU()
      (7): MaxPool2d(kernel_size=2, stride=2, padding=0, dilation=1, ceil_mode=False)
    )
    (fc): Sequential(
      (0): Linear(in_features=8192, out_features=64, bias=True)
      (1): ReLU()
      (2): Linear(in_features=64, out_features=10, bias=True)
    )
  )
  (chunk_emb): Embedding(62, 15)
  (task_emb): Embedding(5, 15)
  (layers): Sequential(
    (0): Linear(in_features=30, out_features=100, bias=True)
    (1): ReLU()
    (2): Linear(in_features=100, out_features=10000, bias=True)
  )
)
{'model': 'HyperNetwork', 'task': 'split_cifar10', 'seed': 1234, 'epochs': 7, 'methods': ['fopng'], 'lr': 0.001, 'lam': 0.0005, 'alpha': 0.5, 'fisher_samples': 1024, 'grads_per_task': 76, 'max_directions': 120, 'hyper_hidden_dim': 100, 'task_embedding_dim': 15, 'chunk_embedding_dim': 15, 'chunk_size': 10000, 'check_vram': False, 'num_tasks': 5, 'architecture': 'HyperNetwork(\n  (target_network): CIFARTarget(\n    (convs): Sequential(\n      (0): Conv2d(3, 32, kernel_size=(3, 3), stride=(1, 1), padding=(1, 1))\n      (1): ReLU()\n      (2): Conv2d(32, 64, kernel_size=(3, 3), stride=(1, 1), padding=(1, 1))\n      (3): ReLU()\n      (4): MaxPool2d(kernel_size=2, stride=2, padding=0, dilation=1, ceil_mode=False)\n      (5): Conv2d(64, 128, kernel_size=(3, 3), stride=(1, 1), padding=(1, 1))\n      (6): ReLU()\n      (7): MaxPool2d(kernel_size=2, stride=2, padding=0, dilation=1, ceil_mode=False)\n    )\n    (fc): Sequential(\n      (0): Linear(in_features=8192, out_features=64, bias=True)\n      (1): ReLU()\n      (2): Linear(in_features=64, out_features=10, bias=True)\n    )\n  )\n  (chunk_emb): Embedding(62, 15)\n  (task_emb): Embedding(5, 15)\n  (layers): Sequential(\n    (0): Linear(in_features=30, out_features=100, bias=True)\n    (1): ReLU()\n    (2): Linear(in_features=100, out_features=10000, bias=True)\n  )\n)'}

--- Starting FOPNG Training ---
[FOPNG] Task 1 – Adam
Traceback (most recent call last):
  File "/home/kelares/Desktop/HyperFisher/HyperFisher/main.py", line 145, in <module>
    results = train_fopng(
  File "/home/kelares/Desktop/HyperFisher/HyperFisher/optimizers/fopng.py", line 423, in train_fopng
    output = hyper_network(x)
  File "/home/kelares/Desktop/thesis/venv_f_h/lib/python3.10/site-packages/torch/nn/modules/module.py", line 1776, in _wrapped_call_impl
…
