Target_network_param_n:  618698
hyper_network_param_n:  524752
310
HyperNetwork(
  (target_network): CIFARTarget(
    (convs): Sequential(
      (0): Conv2d(3, 32, kernel_size=(3, 3), stride=(1, 1), padding=(1, 1))
      (1): ReLU()
      (2): BatchNorm2d(32, eps=1e-05, momentum=0.1, affine=True, track_running_stats=True)
      (3): Conv2d(32, 64, kernel_size=(3, 3), stride=(1, 1), padding=(1, 1))
      (4): ReLU()
      (5): BatchNorm2d(64, eps=1e-05, momentum=0.1, affine=True, track_running_stats=True)
      (6): MaxPool2d(kernel_size=2, stride=2, padding=0, dilation=1, ceil_mode=False)
      (7): Conv2d(64, 128, kernel_size=(3, 3), stride=(1, 1), padding=(1, 1))
      (8): ReLU()
      (9): BatchNorm2d(128, eps=1e-05, momentum=0.1, affine=True, track_running_stats=True)
      (10): MaxPool2d(kernel_size=2, stride=2, padding=0, dilation=1, ceil_mode=False)
    )
    (fc): Sequential(
      (0): Linear(in_features=8192, out_features=64, bias=True)
      (1): ReLU()
      (2): Linear(in_features=64, out_features=10, bias=True)
    )
  )
  (chunk_emb): Embedding(310, 25)
  (task_emb): Embedding(5, 16)
  (layers): Sequential(
    (0): Linear(in_features=41, out_features=256, bias=True)
    (1): ReLU()
    (2): Linear(in_features=256, out_features=2000, bias=True)
  )
)
{'model': 'HyperNetwork', 'task': 'split_cifar10', 'seed': 1234, 'epochs': 10, 'methods': ['fopng'], 'lr': 0.01, 'lam': 0.01, 'alpha': 0.5, 'fisher_samples': 1024, 'grads_per_task': 100, 'max_directions': 400, 'hyper_hidden_dim': 256, 'task_embedding_dim': 16, 'chunk_embedding_dim': 25, 'chunk_size': 2000, 'check_vram': False, 'num_tasks': 5, 'architecture': 'HyperNetwork(\n  (target_network): CIFARTarget(\n    (convs): Sequential(\n      (0): Conv2d(3, 32, kernel_size=(3, 3), stride=(1, 1), padding=(1, 1))\n      (1): ReLU()\n      (2): BatchNorm2d(32, eps=1e-05, momentum=0.1, affine=True, track_running_stats=True)\n      (3): Conv2d(32, 64, kernel_size=(3, 3), stride=(1, 1), padding=(1, 1))\n      (4): ReLU()\n      (5): BatchNorm2d(64, eps=1e-05, momentum=0.1, affine=True, track_running_stats=True)\n      (6): MaxPool2d(kernel_size=2, stride=2, padding=0, dilation=1, ceil_mode=False)\n      (7): Conv2d(64, 128, kernel_size=(3, 3), stride=(1, 1), padding=(1, 1))\n      (8): ReLU()\n      (9): BatchNorm2d(128, eps=1e-05, momentum=0.1, affine=True, track_running_stats=True)\n      (10): MaxPool2d(kernel_size=2, stride=2, padding=0, dilation=1, ceil_mode=False)\n    )\n    (fc): Sequential(\n      (0): Linear(in_features=8192, out_features=64, bias=True)\n      (1): ReLU()\n      (2): Linear(in_features=64, out_features=10, bias=True)\n    )\n  )\n  (chunk_emb): Embedding(310, 25)\n  (task_emb): Embedding(5, 16)\n  (layers): Sequential(\n    (0): Linear(in_features=41, out_features=256, bias=True)\n    (1): ReLU()\n    (2): Linear(in_features=256, out_features=2000, bias=True)\n  )\n)', 'num_of_chunks': 310}

--- Starting FOPNG Training ---
[FOPNG] Task 1 – Adam
  epoch 1/10 loss=85.2216
  epoch 2/10 loss=0.7097
  epoch 3/10 loss=0.6988
  epoch 4/10 loss=0.6969
  epoch 5/10 loss=0.6997
  epoch 6/10 loss=0.6961
  epoch 7/10 loss=0.6955
  epoch 8/10 loss=0.6940
  epoch 9/10 loss=0.6956
  epoch 10/10 loss=0.6962
{'fopng/fisher/min': 0.0, 'fopng/fisher/max': 1.0, 'fopng/fisher/mean': 3.2253497010970023e-06, 'fopng/memory/G_cols': 100, 'fopng/fisher_overlap/cosine': 1.0, 'fopng/fisher_overlap/pearson': 1.0, 'fopng/fisher_overlap/topk_iou': 1.0, 'task_completed': 1}
…
