…
              "7": []
            - "2": fopng/eval/*
              "5": 1
              "6":
                - 1
              "7": []
        python_version: 3.10.19
        t:
            "1":
                - 1
                - 41
            "2":
                - 1
                - 41
            "3":
                - 7
                - 16
            "4": 3.10.19
            "5": 0.25.0
            "12": 0.25.0
            "13": linux-x86_64
alpha:
    value: 0.5
architecture:
    value: |-
        HyperNetwork(
          (target_network): CIFARTarget(
            (convs): Sequential(
              (0): Conv2d(3, 32, kernel_size=(3, 3), stride=(1, 1), padding=(1, 1))
              (1): ReLU()
              (2): BatchNorm2d(32, eps=1e-05, momentum=0.1, affine=True, track_running_stats=True)
              (3): Conv2d(32, 64, kernel_size=(3, 3), stride=(1, 1), padding=(1, 1))
              (4): ReLU()
              (5): BatchNorm2d(64, eps=1e-05, momentum=0.1, affine=True, track_running_stats=True)
              (6): MaxPool2d(kernel_size=2, stride=2, padding=0, dilation=1, ceil_mode=False)
              (7): Conv2d(64, 128, kernel_size=(3, 3), stride=(1, 1), padding=(1, 1))
              (8): ReLU()
              (9): BatchNorm2d(128, eps=1e-05, momentum=0.1, affine=True, track_running_stats=True)
              (10): MaxPool2d(kernel_size=2, stride=2, padding=0, dilation=1, ceil_mode=False)
            )
            (fc): Sequential(
              (0): Linear(in_features=8192, out_features=64, bias=True)
              (1): ReLU()
              (2): Linear(in_features=64, out_features=10, bias=True)
            )
          )
          (chunk_emb): Embedding(310, 25)
          (task_emb): Embedding(5, 16)
          (layers): Sequential(
            (0): Linear(in_features=41, out_features=256, bias=True)
            (1): ReLU()
            (2): Linear(in_features=256, out_features=2000, bias=True)
          )
        )
check_vram:
    value: false
chunk_embedding_dim:
    value: 25
chunk_size:
    value: 2000
epochs:
    value: 15
fisher_samples:
    value: 1024
grads_per_task:
    value: 100
hyper_hidden_dim:
    value: 256
lam:
    value: 0.01
lr:
    value: 0.01
max_directions:
    value: 400
methods:
    value:
        - fopng
model:
    value: HyperNetwork
…
