…
2026-03-29 03:16:47,335 INFO    MainThread:189045 [wandb_run.py:_redirect():2442] Wrapping output streams.
2026-03-29 03:16:47,335 INFO    MainThread:189045 [wandb_run.py:_redirect():2465] Redirects installed.
2026-03-29 03:16:47,337 INFO    MainThread:189045 [wandb_init.py:init():1082] run started, returning control to user process
2026-03-29 03:16:47,337 INFO    MainThread:189045 [wandb_run.py:_config_callback():1403] config_cb None None {'num_tasks': 5}
2026-03-29 03:16:48,543 INFO    MainThread:189045 [wandb_run.py:_config_callback():1403] config_cb None None {'architecture': 'HyperNetwork(\n  (target_network): CIFARTarget(\n    (convs): Sequential(\n      (0): Conv2d(3, 32, kernel_size=(3, 3), stride=(1, 1), padding=(1, 1))\n      (1): ReLU()\n      (2): BatchNorm2d(32, eps=1e-05, momentum=0.1, affine=True, track_running_stats=True)\n      (3): Conv2d(32, 64, kernel_size=(3, 3), stride=(1, 1), padding=(1, 1))\n      (4): ReLU()\n      (5): BatchNorm2d(64, eps=1e-05, momentum=0.1, affine=True, track_running_stats=True)\n      (6): MaxPool2d(kernel_size=2, stride=2, padding=0, dilation=1, ceil_mode=False)\n      (7): Conv2d(64, 128, kernel_size=(3, 3), stride=(1, 1), padding=(1, 1))\n      (8): ReLU()\n      (9): BatchNorm2d(128, eps=1e-05, momentum=0.1, affine=True, track_running_stats=True)\n      (10): MaxPool2d(kernel_size=2, stride=2, padding=0, dilation=1, ceil_mode=False)\n    )\n    (fc): Sequential(\n      (0): Linear(in_features=8192, out_features=64, bias=True)\n      (1): ReLU()\n      (2): Linear(in_features=64, out_features=10, bias=True)\n    )\n  )\n  (chunk_emb): Embedding(155, 32)\n  (task_emb): Embedding(5, 16)\n  (layers): Sequential(\n    (0): Linear(in_features=48, out_features=300, bias=True)\n    (1): ReLU()\n    (2): Linear(in_features=300, out_features=4000, bias=True)\n  )\n)'}
2026-03-29 03:16:48,544 INFO    MainThread:189045 [wandb_run.py:_config_callback():1403] config_cb None None {'num_of_chunks': 155}
2026-03-29 03:46:26,931 INFO    wandb-AsyncioManager-main:189045 [service_client.py:_forward_responses():134] Reached EOF.
2026-03-29 03:46:26,931 INFO    wandb-AsyncioManager-main:189045 [mailbox.py:close():155] Closing mailbox, abandoning 1 handles.
