Target_network_param_n:  102602
hyper_network_param_n:  319700
69
HyperNetwork(
  (target_network): CIFARTarget(
    (convs): Sequential(
      (0): Conv2d(3, 32, kernel_size=(3, 3), stride=(1, 1), padding=(1, 1))
      (1): BatchNorm2d(32, eps=1e-05, momentum=0.1, affine=True, track_running_stats=False)
      (2): ReLU()
      (3): Conv2d(32, 64, kernel_size=(3, 3), stride=(1, 1), padding=(1, 1))
      (4): BatchNorm2d(64, eps=1e-05, momentum=0.1, affine=True, track_running_stats=False)
      (5): ReLU()
      (6): MaxPool2d(kernel_size=2, stride=2, padding=0, dilation=1, ceil_mode=False)
      (7): Conv2d(64, 128, kernel_size=(3, 3), stride=(1, 1), padding=(1, 1))
      (8): BatchNorm2d(128, eps=1e-05, momentum=0.1, affine=True, track_running_stats=False)
      (9): ReLU()
      (10): MaxPool2d(kernel_size=2, stride=2, padding=0, dilation=1, ceil_mode=False)
    )
    (gap): AdaptiveAvgPool2d(output_size=1)
    (fc): Sequential(
      (0): Linear(in_features=128, out_features=64, bias=True)
      (1): ReLU()
      (2): Linear(in_features=64, out_features=10, bias=True)
    )
  )
  (chunk_emb): Embedding(69, 60)
  (task_emb): Embedding(5, 30)
  (layers): Sequential(
    (0): Linear(in_features=90, out_features=200, bias=True)
    (1): LeakyReLU(negative_slope=0.1)
    (2): Linear(in_features=200, out_features=1500, bias=True)
  )
)
{'model': 'HyperNetwork', 'task': 'split_cifar10', 'seed': 1234, 'epochs': 10, 'methods': ['fopng'], 'lr': 0.0001, 'lam': 0.01, 'alpha': 0.1, 'fisher_samples': 1024, 'grads_per_task': 50, 'max_directions': 200, 'hyper_hidden_dim': 200, 'task_embedding_dim': 30, 'chunk_embedding_dim': 60, 'chunk_size': 1500, 'check_vram': False, 'num_tasks': 5, 'architecture': 'HyperNetwork(\n  (target_network): CIFARTarget(\n    (convs): Sequential(\n      (0): Conv2d(3, 32, kernel_size=(3, 3), stride=(1, 1), padding=(1, 1))\n      (1): BatchNorm2d(32, eps=1e-05, momentum=0.1, affine=True, track_running_stats=False)\n      (2): ReLU()\n      (3): Conv2d(32, 64, kernel_size=(3, 3), stride=(1, 1), padding=(1, 1))\n      (4): BatchNorm2d(64, eps=1e-05, momentum=0.1, affine=True, track_running_stats=False)\n      (5): ReLU()\n      (6): MaxPool2d(kernel_size=2, stride=2, padding=0, dilation=1, ceil_mode=False)\n      (7): Conv2d(64, 128, kernel_size=(3, 3), stride=(1, 1), padding=(1, 1))\n      (8): BatchNorm2d(128, eps=1e-05, momentum=0.1, affine=True, track_running_stats=False)\n      (9): ReLU()\n      (10): MaxPool2d(kernel_size=2, stride=2, padding=0, dilation=1, ceil_mode=False)\n    )\n    (gap): AdaptiveAvgPool2d(output_size=1)\n    (fc): Sequential(\n      (0): Linear(in_features=128, out_features=64, bias=True)\n      (1): ReLU()\n      (2): Linear(in_features=64, out_features=10, bias=True)\n    )\n  )\n  (chunk_emb): Embedding(69, 60)\n  (task_emb): Embedding(5, 30)\n  (layers): Sequential(\n    (0): Linear(in_features=90, out_features=200, bias=True)\n    (1): LeakyReLU(negative_slope=0.1)\n    (2): Linear(in_features=200, out_features=1500, bias=True)\n  )\n)', 'num_of_chunks': 69}

--- Starting FOPNG Training ---
[FOPNG] Task 1 – Adam
  epoch 1/10 loss=0.5176
  epoch 2/10 loss=0.4074
  epoch 3/10 loss=0.3432
  epoch 4/10 loss=0.3313
  epoch 5/10 loss=0.3082
  epoch 6/10 loss=0.2486
  epoch 7/10 loss=0.2477
  epoch 8/10 loss=0.3064
  epoch 9/10 loss=0.2523
  epoch 10/10 loss=0.2340
{'fopng/fisher/min': 0.0, 'fopng/fisher/max': 1.0, 'fopng/fisher/mean': 0.00039020265103317797, 'fopng/memory/G_cols': 50, 'fopng/fisher_overlap/cosine': 1.0, 'fopng/fisher_overlap/pearson': 1.0, 'fopng/fisher_overlap/topk_iou': 1.0, 'task_completed': 1}
…
