…
2026-03-29 21:57:37,424 INFO    MainThread:106246 [wandb_run.py:_redirect():2442] Wrapping output streams.
2026-03-29 21:57:37,424 INFO    MainThread:106246 [wandb_run.py:_redirect():2465] Redirects installed.
2026-03-29 21:57:37,426 INFO    MainThread:106246 [wandb_init.py:init():1082] run started, returning control to user process
2026-03-29 21:57:37,426 INFO    MainThread:106246 [wandb_run.py:_config_callback():1403] config_cb None None {'num_tasks': 5}
2026-03-29 21:57:38,947 INFO    MainThread:106246 [wandb_run.py:_config_callback():1403] config_cb None None {'architecture': 'HyperNetwork(\n  (target_network): CIFARTarget(\n    (convs): Sequential(\n      (0): Conv2d(3, 32, kernel_size=(3, 3), stride=(1, 1), padding=(1, 1))\n      (1): BatchNorm2d(32, eps=1e-05, momentum=0.1, affine=True, track_running_stats=True)\n      (2): ReLU()\n      (3): Conv2d(32, 64, kernel_size=(3, 3), stride=(1, 1), padding=(1, 1))\n      (4): BatchNorm2d(64, eps=1e-05, momentum=0.1, affine=True, track_running_stats=True)\n      (5): ReLU()\n      (6): MaxPool2d(kernel_size=2, stride=2, padding=0, dilation=1, ceil_mode=False)\n      (7): Conv2d(64, 128, kernel_size=(3, 3), stride=(1, 1), padding=(1, 1))\n      (8): BatchNorm2d(128, eps=1e-05, momentum=0.1, affine=True, track_running_stats=True)\n      (9): ReLU()\n      (10): MaxPool2d(kernel_size=2, stride=2, padding=0, dilation=1, ceil_mode=False)\n    )\n    (gap): AdaptiveAvgPool2d(output_size=1)\n    (fc): Sequential(\n      (0): Linear(in_features=128, out_features=64, bias=True)\n      (1): ReLU()\n      (2): Linear(in_features=64, out_features=10, bias=True)\n    )\n  )\n  (chunk_emb): Embedding(69, 32)\n  (task_emb): Embedding(5, 32)\n  (layers): Sequential(\n    (0): Linear(in_features=64, out_features=200, bias=True)\n    (1): LeakyReLU(negative_slope=0.1)\n    (2): Linear(in_features=200, out_features=1500, bias=True)\n  )\n)'}
2026-03-29 21:57:38,948 INFO    MainThread:106246 [wandb_run.py:_config_callback():1403] config_cb None None {'num_of_chunks': 69}
2026-03-29 22:00:49,867 INFO    wandb-AsyncioManager-main:106246 [service_client.py:_forward_responses():134] Reached EOF.
2026-03-29 22:00:49,867 INFO    wandb-AsyncioManager-main:106246 [mailbox.py:close():155] Closing mailbox, abandoning 1 handles.
