…
                - 3
              "7": []
            - "2": fopng/eval/*
              "5": 1
              "6":
                - 1
              "7": []
        python_version: 3.10.19
        t:
            "1":
                - 1
                - 41
            "2":
                - 1
                - 41
            "3":
                - 7
                - 16
            "4": 3.10.19
            "5": 0.25.0
            "12": 0.25.0
            "13": linux-x86_64
alpha:
    value: 0.3
architecture:
    value: |-
        HyperNetwork(
          (target_network): ResNet(
            (conv1): Conv2d(3, 64, kernel_size=(3, 3), stride=(1, 1), padding=(1, 1), bias=False)
            (gn1): GroupNorm(32, 64, eps=1e-05, affine=True)
            (layer1): Sequential(
              (0): BasicBlock(
                (conv1): Conv2d(64, 64, kernel_size=(3, 3), stride=(1, 1), padding=(1, 1), bias=False)
                (gn1): GroupNorm(32, 64, eps=1e-05, affine=True)
                (conv2): Conv2d(64, 64, kernel_size=(3, 3), stride=(1, 1), padding=(1, 1), bias=False)
                (gn2): GroupNorm(32, 64, eps=1e-05, affine=True)
                (shortcut): Sequential()
              )
              (1): BasicBlock(
                (conv1): Conv2d(64, 64, kernel_size=(3, 3), stride=(1, 1), padding=(1, 1), bias=False)
                (gn1): GroupNorm(32, 64, eps=1e-05, affine=True)
                (conv2): Conv2d(64, 64, kernel_size=(3, 3), stride=(1, 1), padding=(1, 1), bias=False)
                (gn2): GroupNorm(32, 64, eps=1e-05, affine=True)
                (shortcut): Sequential()
              )
            )
            (layer2): Sequential(
              (0): BasicBlock(
                (conv1): Conv2d(64, 128, kernel_size=(3, 3), stride=(2, 2), padding=(1, 1), bias=False)
                (gn1): GroupNorm(32, 128, eps=1e-05, affine=True)
                (conv2): Conv2d(128, 128, kernel_size=(3, 3), stride=(1, 1), padding=(1, 1), bias=False)
                (gn2): GroupNorm(32, 128, eps=1e-05, affine=True)
                (shortcut): Sequential(
                  (0): Conv2d(64, 128, kernel_size=(1, 1), stride=(2, 2), bias=False)
                  (1): GroupNorm(32, 128, eps=1e-05, affine=True)
                )
              )
              (1): BasicBlock(
                (conv1): Conv2d(128, 128, kernel_size=(3, 3), stride=(1, 1), padding=(1, 1), bias=False)
                (gn1): GroupNorm(32, 128, eps=1e-05, affine=True)
                (conv2): Conv2d(128, 128, kernel_size=(3, 3), stride=(1, 1), padding=(1, 1), bias=False)
                (gn2): GroupNorm(32, 128, eps=1e-05, affine=True)
                (shortcut): Sequential()
              )
            )
            (layer3): Sequential(
              (0): BasicBlock(
                (conv1): Conv2d(128, 256, kernel_size=(3, 3), stride=(2, 2), padding=(1, 1), bias=False)
                (gn1): GroupNorm(32, 256, eps=1e-05, affine=True)
                (conv2): Conv2d(256, 256, kernel_size=(3, 3), stride=(1, 1), padding=(1, 1), bias=False)
                (gn2): GroupNorm(32, 256, eps=1e-05, affine=True)
                (shortcut): Sequential(
                  (0): Conv2d(128, 256, kernel_size=(1, 1), stride=(2, 2), bias=False)
                  (1): GroupNorm(32, 256, eps=1e-05, affine=True)
                )
              )
              (1): BasicBlock(
                (conv1): Conv2d(256, 256, kernel_size=(3, 3), stride=(1, 1), padding=(1, 1), bias=False)
                (gn1): GroupNorm(32, 256, eps=1e-05, affine=True)
                (conv2): Conv2d(256, 256, kernel_size=(3, 3), stride=(1, 1), padding=(1, 1), bias=False)
                (gn2): GroupNorm(32, 256, eps=1e-05, affine=True)
                (shortcut): Sequential()
              )
            )
            (layer4): Sequential(
              (0): BasicBlock(
                (conv1): Conv2d(256, 512, kernel_size=(3, 3), stride=(2, 2), padding=(1, 1), bias=False)
                (gn1): GroupNorm(32, 512, eps=1e-05, affine=True)
                (conv2): Conv2d(512, 512, kernel_size=(3, 3), stride=(1, 1), padding=(1, 1), bias=False)
                (gn2): GroupNorm(32, 512, eps=1e-05, affine=True)
                (shortcut): Sequential(
                  (0): Conv2d(256, 512, kernel_size=(1, 1), stride=(2, 2), bias=False)
                  (1): GroupNorm(32, 512, eps=1e-05, affine=True)
                )
              )
              (1): BasicBlock(
                (conv1): Conv2d(512, 512, kernel_size=(3, 3), stride=(1, 1), padding=(1, 1), bias=False)
                (gn1): GroupNorm(32, 512, eps=1e-05, affine=True)
                (conv2): Conv2d(512, 512, kernel_size=(3, 3), stride=(1, 1), padding=(1, 1), bias=False)
                (gn2): GroupNorm(32, 512, eps=1e-05, affine=True)
                (shortcut): Sequential()
              )
            )
            (linear): Linear(in_features=512, out_features=10, bias=True)
          )
          (chunk_emb): Embedding(11174, 32)
          (task_emb): Embedding(5, 32)
          (layers): Sequential(
            (0): Linear(in_features=64, out_features=100, bias=True)
            (1): LeakyReLU(negative_slope=0.1)
            (2): Linear(in_features=100, out_features=200, bias=True)
            (3): LeakyReLU(negative_slope=0.1)
            (4): Linear(in_features=200, out_features=1000, bias=True)
          )
        )
check_vram:
    value: false
chunk_embedding_dim:
    value: 32
chunk_size:
    value: 1000
epochs:
    value: 5
fisher_samples:
    value: 512
grads_per_task:
    value: 200
hyper_hidden_dim:
    value: 100
lam:
    value: 0.001
lr:
    value: 0.001
max_directions:
    value: 600
methods:
    value:
        - fopng
model:
    value: HyperNetwork
…
