Target_network_param_n:  618250
hyper_network_param_n:  1013100
62
HyperNetwork(
  (target_network): CIFARTarget(
    (convs): Sequential(
      (0): Conv2d(3, 32, kernel_size=(3, 3), stride=(1, 1), padding=(1, 1))
      (1): ReLU()
      (2): Conv2d(32, 64, kernel_size=(3, 3), stride=(1, 1), padding=(1, 1))
      (3): ReLU()
      (4): MaxPool2d(kernel_size=2, stride=2, padding=0, dilation=1, ceil_mode=False)
      (5): Conv2d(64, 128, kernel_size=(3, 3), stride=(1, 1), padding=(1, 1))
      (6): ReLU()
      (7): MaxPool2d(kernel_size=2, stride=2, padding=0, dilation=1, ceil_mode=False)
    )
    (fc): Sequential(
      (0): Linear(in_features=8192, out_features=64, bias=True)
      (1): ReLU()
      (2): Linear(in_features=64, out_features=10, bias=True)
    )
  )
  (chunk_emb): Embedding(62, 15)
  (task_emb): Embedding(5, 15)
  (layers): Sequential(
    (0): Linear(in_features=30, out_features=100, bias=True)
    (1): ReLU()
    (2): Linear(in_features=100, out_features=10000, bias=True)
  )
)
{'model': 'HyperNetwork', 'task': 'split_cifar10', 'seed': 1234, 'epochs': 15, 'methods': ['fopng'], 'lr': 0.01, 'lam': 0.0005, 'alpha': 0.5, 'fisher_samples': 1024, 'grads_per_task': 100, 'max_directions': 300, 'hyper_hidden_dim': 100, 'task_embedding_dim': 15, 'chunk_embedding_dim': 15, 'chunk_size': 10000, 'check_vram': False, 'num_tasks': 5, 'architecture': 'HyperNetwork(\n  (target_network): CIFARTarget(\n    (convs): Sequential(\n      (0): Conv2d(3, 32, kernel_size=(3, 3), stride=(1, 1), padding=(1, 1))\n      (1): ReLU()\n      (2): Conv2d(32, 64, kernel_size=(3, 3), stride=(1, 1), padding=(1, 1))\n      (3): ReLU()\n      (4): MaxPool2d(kernel_size=2, stride=2, padding=0, dilation=1, ceil_mode=False)\n      (5): Conv2d(64, 128, kernel_size=(3, 3), stride=(1, 1), padding=(1, 1))\n      (6): ReLU()\n      (7): MaxPool2d(kernel_size=2, stride=2, padding=0, dilation=1, ceil_mode=False)\n    )\n    (fc): Sequential(\n      (0): Linear(in_features=8192, out_features=64, bias=True)\n      (1): ReLU()\n      (2): Linear(in_features=64, out_features=10, bias=True)\n    )\n  )\n  (chunk_emb): Embedding(62, 15)\n  (task_emb): Embedding(5, 15)\n  (layers): Sequential(\n    (0): Linear(in_features=30, out_features=100, bias=True)\n    (1): ReLU()\n    (2): Linear(in_features=100, out_features=10000, bias=True)\n  )\n)', 'num_of_chunks': 62}

--- Starting FOPNG Training ---
[FOPNG] Task 1 – Adam
  epoch 1/15 loss=290.7303
  epoch 2/15 loss=0.9019
  epoch 3/15 loss=0.7544
  epoch 4/15 loss=0.7230
  epoch 5/15 loss=0.7112
  epoch 6/15 loss=0.7054
  epoch 7/15 loss=0.7020
  epoch 8/15 loss=0.6998
  epoch 9/15 loss=0.7010
  epoch 10/15 loss=0.6975
  epoch 11/15 loss=0.6974
…
