Target_network_param_n:  102602
hyper_network_param_n:  1548300
69
HyperNetwork(
  (target_network): CIFARTarget(
    (convs): Sequential(
      (0): Conv2d(3, 32, kernel_size=(3, 3), stride=(1, 1), padding=(1, 1))
      (1): GroupNorm(1, 32, eps=1e-05, affine=True)
      (2): ReLU()
      (3): Conv2d(32, 64, kernel_size=(3, 3), stride=(1, 1), padding=(1, 1))
      (4): GroupNorm(1, 64, eps=1e-05, affine=True)
      (5): ReLU()
      (6): MaxPool2d(kernel_size=2, stride=2, padding=0, dilation=1, ceil_mode=False)
      (7): Conv2d(64, 128, kernel_size=(3, 3), stride=(1, 1), padding=(1, 1))
      (8): GroupNorm(1, 128, eps=1e-05, affine=True)
      (9): ReLU()
      (10): MaxPool2d(kernel_size=2, stride=2, padding=0, dilation=1, ceil_mode=False)
    )
    (gap): AdaptiveAvgPool2d(output_size=1)
    (fc): Sequential(
      (0): Linear(in_features=128, out_features=64, bias=True)
      (1): ReLU()
      (2): Linear(in_features=64, out_features=10, bias=True)
    )
  )
  (chunk_emb): Embedding(69, 32)
  (task_emb): Embedding(5, 32)
  (layers): Sequential(
    (0): Linear(in_features=64, out_features=400, bias=True)
    (1): LeakyReLU(negative_slope=0.1)
    (2): Linear(in_features=400, out_features=800, bias=True)
    (3): LeakyReLU(negative_slope=0.1)
    (4): Linear(in_features=800, out_features=1500, bias=True)
  )
)
{'model': 'HyperNetwork', 'task': 'split_cifar10', 'seed': 1234, 'epochs': 20, 'methods': ['fopng'], 'lr': 0.0001, 'lam': 0.01, 'alpha': 0.4, 'fisher_samples': 1024, 'grads_per_task': 250, 'max_directions': 1250, 'hyper_hidden_dim': 400, 'task_embedding_dim': 32, 'chunk_embedding_dim': 32, 'chunk_size': 1500, 'check_vram': False, 'num_tasks': 5, 'architecture': 'HyperNetwork(\n  (target_network): CIFARTarget(\n    (convs): Sequential(\n      (0): Conv2d(3, 32, kernel_size=(3, 3), stride=(1, 1), padding=(1, 1))\n      (1): GroupNorm(1, 32, eps=1e-05, affine=True)\n      (2): ReLU()\n      (3): Conv2d(32, 64, kernel_size=(3, 3), stride=(1, 1), padding=(1, 1))\n      (4): GroupNorm(1, 64, eps=1e-05, affine=True)\n      (5): ReLU()\n      (6): MaxPool2d(kernel_size=2, stride=2, padding=0, dilation=1, ceil_mode=False)\n      (7): Conv2d(64, 128, kernel_size=(3, 3), stride=(1, 1), padding=(1, 1))\n      (8): GroupNorm(1, 128, eps=1e-05, affine=True)\n      (9): ReLU()\n      (10): MaxPool2d(kernel_size=2, stride=2, padding=0, dilation=1, ceil_mode=False)\n    )\n    (gap): AdaptiveAvgPool2d(output_size=1)\n    (fc): Sequential(\n      (0): Linear(in_features=128, out_features=64, bias=True)\n      (1): ReLU()\n      (2): Linear(in_features=64, out_features=10, bias=True)\n    )\n  )\n  (chunk_emb): Embedding(69, 32)\n  (task_emb): Embedding(5, 32)\n  (layers): Sequential(\n    (0): Linear(in_features=64, out_features=400, bias=True)\n    (1): LeakyReLU(negative_slope=0.1)\n    (2): Linear(in_features=400, out_features=800, bias=True)\n    (3): LeakyReLU(negative_slope=0.1)\n    (4): Linear(in_features=800, out_features=1500, bias=True)\n  )\n)', 'num_of_chunks': 69}

--- Starting FOPNG Training ---
[FOPNG] Task 1 – Adam
  epoch 1/20 loss=0.6986
  epoch 2/20 loss=0.5049
  epoch 3/20 loss=0.4232
  epoch 4/20 loss=0.4066
  epoch 5/20 loss=0.3723
  epoch 6/20 loss=0.3417
  epoch 7/20 loss=0.3176
  epoch 8/20 loss=0.3258
  epoch 9/20 loss=0.3170
  epoch 10/20 loss=0.2849
  epoch 11/20 loss=0.2872
…
