…
2026-04-07 23:43:47,425 INFO    MainThread:84152 [wandb_run.py:_redirect():2442] Wrapping output streams.
2026-04-07 23:43:47,425 INFO    MainThread:84152 [wandb_run.py:_redirect():2465] Redirects installed.
2026-04-07 23:43:47,427 INFO    MainThread:84152 [wandb_init.py:init():1082] run started, returning control to user process
2026-04-07 23:43:47,427 INFO    MainThread:84152 [wandb_run.py:_config_callback():1403] config_cb None None {'num_tasks': 5}
2026-04-07 23:43:48,512 INFO    MainThread:84152 [wandb_run.py:_config_callback():1403] config_cb None None {'architecture': 'HyperNetwork(\n  (target_network): DummyCIFARTarget(\n    (convs): Sequential(\n      (0): Conv2d(3, 32, kernel_size=(3, 3), stride=(1, 1), padding=(1, 1))\n      (1): GroupNorm(1, 32, eps=1e-05, affine=True)\n      (2): ReLU()\n      (3): Conv2d(32, 64, kernel_size=(3, 3), stride=(1, 1), padding=(1, 1))\n      (4): GroupNorm(1, 64, eps=1e-05, affine=True)\n      (5): ReLU()\n      (6): MaxPool2d(kernel_size=2, stride=2, padding=0, dilation=1, ceil_mode=False)\n      (7): Conv2d(64, 128, kernel_size=(3, 3), stride=(1, 1), padding=(1, 1))\n      (8): GroupNorm(1, 128, eps=1e-05, affine=True)\n      (9): ReLU()\n      (10): MaxPool2d(kernel_size=2, stride=2, padding=0, dilation=1, ceil_mode=False)\n    )\n    (gap): AdaptiveAvgPool2d(output_size=1)\n    (fc): Sequential(\n      (0): Linear(in_features=128, out_features=64, bias=True)\n      (1): ReLU()\n      (2): Linear(in_features=64, out_features=10, bias=True)\n    )\n  )\n  (chunk_emb): Embedding(11, 64)\n  (task_emb): Embedding(5, 64)\n  (layers): Sequential(\n    (0): Linear(in_features=128, out_features=512, bias=True)\n    (1): LeakyReLU(negative_slope=0.1)\n    (2): Linear(in_features=512, out_features=1024, bias=True)\n    (3): LeakyReLU(negative_slope=0.1)\n    (4): Linear(in_features=1024, out_features=10000, bias=True)\n  )\n)'}
2026-04-07 23:43:48,513 INFO    MainThread:84152 [wandb_run.py:_config_callback():1403] config_cb None None {'num_of_chunks': 11}
2026-04-07 23:55:23,824 INFO    MainThread:84152 [retry.py:__call__():167] Retry attempt failed:
Traceback (most recent call last):
  File "/home/kelares/Desktop/thesis/venv_f_h/lib/python3.10/site-packages/urllib3/connection.py", line 204, in _new_conn
…
