Target_network_param_n:  478410
hyper_network_param_n:  8890
4785
HyperNetwork(
  (target_network): Sequential(
    (0): Linear(in_features=784, out_features=400, bias=True)
    (1): ReLU()
    (2): Linear(in_features=400, out_features=400, bias=True)
    (3): ReLU()
    (4): Linear(in_features=400, out_features=10, bias=True)
  )
  (chunk_emb): Embedding(4785, 15)
  (task_emb): Embedding(5, 15)
  (layers): Sequential(
    (0): Linear(in_features=30, out_features=30, bias=True)
    (1): LeakyReLU(negative_slope=0.1)
    (2): Linear(in_features=30, out_features=60, bias=True)
    (3): LeakyReLU(negative_slope=0.1)
    (4): Linear(in_features=60, out_features=100, bias=True)
  )
)
{'model': 'HyperNetwork', 'task': 'split_mnist', 'seed': 1234, 'epochs': 1, 'methods': ['fopng'], 'lr': 0.0001, 'lam': 0.01, 'alpha': 0.5, 'fisher_samples': 1024, 'grads_per_task': 100, 'max_directions': 200, 'hyper_hidden_dim': 30, 'task_embedding_dim': 15, 'chunk_embedding_dim': 15, 'chunk_size': 100, 'check_vram': False, 'num_tasks': 5, 'architecture': 'HyperNetwork(\n  (target_network): Sequential(\n    (0): Linear(in_features=784, out_features=400, bias=True)\n    (1): ReLU()\n    (2): Linear(in_features=400, out_features=400, bias=True)\n    (3): ReLU()\n    (4): Linear(in_features=400, out_features=10, bias=True)\n  )\n  (chunk_emb): Embedding(4785, 15)\n  (task_emb): Embedding(5, 15)\n  (layers): Sequential(\n    (0): Linear(in_features=30, out_features=30, bias=True)\n    (1): LeakyReLU(negative_slope=0.1)\n    (2): Linear(in_features=30, out_features=60, bias=True)\n    (3): LeakyReLU(negative_slope=0.1)\n    (4): Linear(in_features=60, out_features=100, bias=True)\n  )\n)', 'num_of_chunks': 4785}

--- Starting FOPNG Training ---
[FOPNG] Task 1 – Adam
  epoch 1/1 loss=1.9681
Traceback (most recent call last):
  File "/home/kelares/Desktop/HyperFisher/HyperFisher/main.py", line 148, in <module>
    results = train_fopng(
  File "/home/kelares/Desktop/HyperFisher/HyperFisher/optimizers/fopng.py", line 484, in train_fopng
…
