Target_network_param_n:  618250
hyper_network_param_n:  517840
310
HyperNetwork(
  (target_network): CIFARTarget(
    (convs): Sequential(
      (0): Conv2d(3, 32, kernel_size=(3, 3), stride=(1, 1), padding=(1, 1))
      (1): ReLU()
      (2): Conv2d(32, 64, kernel_size=(3, 3), stride=(1, 1), padding=(1, 1))
      (3): ReLU()
      (4): MaxPool2d(kernel_size=2, stride=2, padding=0, dilation=1, ceil_mode=False)
      (5): Conv2d(64, 128, kernel_size=(3, 3), stride=(1, 1), padding=(1, 1))
      (6): ReLU()
      (7): MaxPool2d(kernel_size=2, stride=2, padding=0, dilation=1, ceil_mode=False)
    )
    (fc): Sequential(
      (0): Linear(in_features=8192, out_features=64, bias=True)
      (1): ReLU()
      (2): Linear(in_features=64, out_features=10, bias=True)
    )
  )
  (chunk_emb): Embedding(310, 10)
  (task_emb): Embedding(5, 4)
  (layers): Sequential(
    (0): Linear(in_features=14, out_features=256, bias=True)
    (1): ReLU()
    (2): Linear(in_features=256, out_features=2000, bias=True)
  )
)
{'model': 'HyperNetwork', 'task': 'split_cifar10', 'seed': 1234, 'epochs': 10, 'methods': ['fopng'], 'lr': 0.0002, 'lam': 0.01, 'alpha': 0.5, 'fisher_samples': 1024, 'grads_per_task': 100, 'max_directions': 400, 'hyper_hidden_dim': 256, 'task_embedding_dim': 4, 'chunk_embedding_dim': 10, 'chunk_size': 2000, 'check_vram': False, 'num_tasks': 5, 'architecture': 'HyperNetwork(\n  (target_network): CIFARTarget(\n    (convs): Sequential(\n      (0): Conv2d(3, 32, kernel_size=(3, 3), stride=(1, 1), padding=(1, 1))\n      (1): ReLU()\n      (2): Conv2d(32, 64, kernel_size=(3, 3), stride=(1, 1), padding=(1, 1))\n      (3): ReLU()\n      (4): MaxPool2d(kernel_size=2, stride=2, padding=0, dilation=1, ceil_mode=False)\n      (5): Conv2d(64, 128, kernel_size=(3, 3), stride=(1, 1), padding=(1, 1))\n      (6): ReLU()\n      (7): MaxPool2d(kernel_size=2, stride=2, padding=0, dilation=1, ceil_mode=False)\n    )\n    (fc): Sequential(\n      (0): Linear(in_features=8192, out_features=64, bias=True)\n      (1): ReLU()\n      (2): Linear(in_features=64, out_features=10, bias=True)\n    )\n  )\n  (chunk_emb): Embedding(310, 10)\n  (task_emb): Embedding(5, 4)\n  (layers): Sequential(\n    (0): Linear(in_features=14, out_features=256, bias=True)\n    (1): ReLU()\n    (2): Linear(in_features=256, out_features=2000, bias=True)\n  )\n)', 'num_of_chunks': 310}

--- Starting FOPNG Training ---
[FOPNG] Task 1 – Adam
  epoch 1/10 loss=5.2227
  epoch 2/10 loss=2.0847
  epoch 3/10 loss=1.9416
  epoch 4/10 loss=1.7857
  epoch 5/10 loss=1.6300
  epoch 6/10 loss=1.4790
  epoch 7/10 loss=1.3398
  epoch 8/10 loss=1.2161
  epoch 9/10 loss=1.1112
  epoch 10/10 loss=1.0272
{'fopng/fisher/min': 0.0, 'fopng/fisher/max': 1.0, 'fopng/fisher/mean': 3.3009819162543863e-06, 'fopng/memory/G_cols': 100, 'fopng/fisher_overlap/cosine': 1.0, 'fopng/fisher_overlap/pearson': 1.0, 'fopng/fisher_overlap/topk_iou': 1.0, 'task_completed': 1}
…
