Target_network_param_n:  478410
hyper_network_param_n:  307790
96
HyperNetwork(
  (target_network): Sequential(
    (0): Linear(in_features=784, out_features=400, bias=True)
    (1): ReLU()
    (2): Linear(in_features=400, out_features=400, bias=True)
    (3): ReLU()
    (4): Linear(in_features=400, out_features=10, bias=True)
  )
  (chunk_emb): Embedding(96, 15)
  (task_emb): Embedding(5, 15)
  (layers): Sequential(
    (0): Linear(in_features=30, out_features=30, bias=True)
    (1): LeakyReLU(negative_slope=0.1)
    (2): Linear(in_features=30, out_features=60, bias=True)
    (3): LeakyReLU(negative_slope=0.1)
    (4): Linear(in_features=60, out_features=5000, bias=True)
  )
)
{'model': 'HyperNetwork', 'task': 'split_mnist', 'seed': 1234, 'epochs': 7, 'methods': ['fopng'], 'lr': 1e-05, 'lam': 0.0001, 'alpha': 0.3, 'fisher_samples': 1024, 'grads_per_task': 100, 'max_directions': 200, 'hyper_hidden_dim': 30, 'task_embedding_dim': 15, 'chunk_embedding_dim': 15, 'chunk_size': 5000, 'check_vram': False, 'num_tasks': 5, 'architecture': 'HyperNetwork(\n  (target_network): Sequential(\n    (0): Linear(in_features=784, out_features=400, bias=True)\n    (1): ReLU()\n    (2): Linear(in_features=400, out_features=400, bias=True)\n    (3): ReLU()\n    (4): Linear(in_features=400, out_features=10, bias=True)\n  )\n  (chunk_emb): Embedding(96, 15)\n  (task_emb): Embedding(5, 15)\n  (layers): Sequential(\n    (0): Linear(in_features=30, out_features=30, bias=True)\n    (1): LeakyReLU(negative_slope=0.1)\n    (2): Linear(in_features=30, out_features=60, bias=True)\n    (3): LeakyReLU(negative_slope=0.1)\n    (4): Linear(in_features=60, out_features=5000, bias=True)\n  )\n)', 'num_of_chunks': 96}

--- Starting FOPNG Training ---
[FOPNG] Task 1 – Adam
  epoch 1/7 loss=1.3722
  epoch 2/7 loss=0.3911
  epoch 3/7 loss=0.1339
  epoch 4/7 loss=0.0697
  epoch 5/7 loss=0.0454
  epoch 6/7 loss=0.0329
  epoch 7/7 loss=0.0258
{'fopng/fisher/min': 0.0, 'fopng/fisher/max': 1.0, 'fopng/fisher/mean': 0.023451566696166992, 'fopng/memory/G_cols': 100, 'fopng/fisher_overlap/cosine': 1.0, 'fopng/fisher_overlap/pearson': 1.0, 'fopng/fisher_overlap/topk_iou': 1.0, 'task_completed': 1}
…
