Target_network_param_n:  102602
hyper_network_param_n:  314500
69
HyperNetwork(
  (target_network): CIFARTarget(
    (convs): Sequential(
      (0): Conv2d(3, 32, kernel_size=(3, 3), stride=(1, 1), padding=(1, 1))
      (1): BatchNorm2d(32, eps=1e-05, momentum=0.1, affine=True, track_running_stats=True)
      (2): ReLU()
      (3): Conv2d(32, 64, kernel_size=(3, 3), stride=(1, 1), padding=(1, 1))
      (4): BatchNorm2d(64, eps=1e-05, momentum=0.1, affine=True, track_running_stats=True)
      (5): ReLU()
      (6): MaxPool2d(kernel_size=2, stride=2, padding=0, dilation=1, ceil_mode=False)
      (7): Conv2d(64, 128, kernel_size=(3, 3), stride=(1, 1), padding=(1, 1))
      (8): BatchNorm2d(128, eps=1e-05, momentum=0.1, affine=True, track_running_stats=True)
      (9): ReLU()
      (10): MaxPool2d(kernel_size=2, stride=2, padding=0, dilation=1, ceil_mode=False)
    )
    (gap): AdaptiveAvgPool2d(output_size=1)
    (fc): Sequential(
      (0): Linear(in_features=128, out_features=64, bias=True)
      (1): ReLU()
      (2): Linear(in_features=64, out_features=10, bias=True)
    )
  )
  (chunk_emb): Embedding(69, 32)
  (task_emb): Embedding(5, 32)
  (layers): Sequential(
    (0): Linear(in_features=64, out_features=200, bias=True)
    (1): LeakyReLU(negative_slope=0.1)
    (2): Linear(in_features=200, out_features=1500, bias=True)
  )
)
{'model': 'HyperNetwork', 'task': 'split_cifar10', 'seed': 1234, 'epochs': 20, 'methods': ['fopng'], 'lr': 0.0001, 'lam': 1e-05, 'alpha': 0.3, 'fisher_samples': 1024, 'grads_per_task': 400, 'max_directions': 1200, 'hyper_hidden_dim': 200, 'task_embedding_dim': 32, 'chunk_embedding_dim': 32, 'chunk_size': 1500, 'check_vram': False, 'num_tasks': 5, 'architecture': 'HyperNetwork(\n  (target_network): CIFARTarget(\n    (convs): Sequential(\n      (0): Conv2d(3, 32, kernel_size=(3, 3), stride=(1, 1), padding=(1, 1))\n      (1): BatchNorm2d(32, eps=1e-05, momentum=0.1, affine=True, track_running_stats=True)\n      (2): ReLU()\n      (3): Conv2d(32, 64, kernel_size=(3, 3), stride=(1, 1), padding=(1, 1))\n      (4): BatchNorm2d(64, eps=1e-05, momentum=0.1, affine=True, track_running_stats=True)\n      (5): ReLU()\n      (6): MaxPool2d(kernel_size=2, stride=2, padding=0, dilation=1, ceil_mode=False)\n      (7): Conv2d(64, 128, kernel_size=(3, 3), stride=(1, 1), padding=(1, 1))\n      (8): BatchNorm2d(128, eps=1e-05, momentum=0.1, affine=True, track_running_stats=True)\n      (9): ReLU()\n      (10): MaxPool2d(kernel_size=2, stride=2, padding=0, dilation=1, ceil_mode=False)\n    )\n    (gap): AdaptiveAvgPool2d(output_size=1)\n    (fc): Sequential(\n      (0): Linear(in_features=128, out_features=64, bias=True)\n      (1): ReLU()\n      (2): Linear(in_features=64, out_features=10, bias=True)\n    )\n  )\n  (chunk_emb): Embedding(69, 32)\n  (task_emb): Embedding(5, 32)\n  (layers): Sequential(\n    (0): Linear(in_features=64, out_features=200, bias=True)\n    (1): LeakyReLU(negative_slope=0.1)\n    (2): Linear(in_features=200, out_features=1500, bias=True)\n  )\n)', 'num_of_chunks': 69}

--- Starting FOPNG Training ---
[FOPNG] Task 1 – Adam
Traceback (most recent call last):
  File "/home/kelares/Desktop/HyperFisher/HyperFisher/main.py", line 148, in <module>
    results = train_fopng(
  File "/home/kelares/Desktop/HyperFisher/HyperFisher/optimizers/fopng.py", line 439, in train_fopng
    loss.backward()
…
